…
2020-04-05 20:33:33.257190: I tensorflow/core/common_runtime/gpu/gpu_device.cc:1096] Device interconnect StreamExecutor with strength 1 edge matrix:
2020-04-05 20:33:33.257205: I tensorflow/core/common_runtime/gpu/gpu_device.cc:1102]      
1932
Found 1932 images belonging to 19 classes.
Model: "model_2"
__________________________________________________________________________________________________
Layer (type)                    Output Shape         Param #     Connected to                     
==================================================================================================
input_1 (InputLayer)            (None, 224, 224, 3)  0                                            
__________________________________________________________________________________________________
conv2d_1 (Conv2D)               (None, 112, 112, 32) 864         input_1[0][0]                    
__________________________________________________________________________________________________
batch_normalization_1 (BatchNor (None, 112, 112, 32) 128         conv2d_1[0][0]                   
__________________________________________________________________________________________________
swish_1 (Swish)                 (None, 112, 112, 32) 0           batch_normalization_1[0][0]      
__________________________________________________________________________________________________
depthwise_conv2d_1 (DepthwiseCo (None, 112, 112, 32) 288         swish_1[0][0]                    
__________________________________________________________________________________________________
batch_normalization_2 (BatchNor (None, 112, 112, 32) 128         depthwise_conv2d_1[0][0]         
__________________________________________________________________________________________________
swish_2 (Swish)                 (None, 112, 112, 32) 0           batch_normalization_2[0][0]      
__________________________________________________________________________________________________
lambda_1 (Lambda)               (None, 1, 1, 32)     0           swish_2[0][0]                    
__________________________________________________________________________________________________
conv2d_2 (Conv2D)               (None, 1, 1, 8)      264         lambda_1[0][0]                   
__________________________________________________________________________________________________
swish_3 (Swish)                 (None, 1, 1, 8)      0           conv2d_2[0][0]                   
__________________________________________________________________________________________________
conv2d_3 (Conv2D)               (None, 1, 1, 32)     288         swish_3[0][0]                    
__________________________________________________________________________________________________
activation_1 (Activation)       (None, 1, 1, 32)     0           conv2d_3[0][0]                   
__________________________________________________________________________________________________
multiply_1 (Multiply)           (None, 112, 112, 32) 0           activation_1[0][0]               
                                                                 swish_2[0][0]                    
__________________________________________________________________________________________________
conv2d_4 (Conv2D)               (None, 112, 112, 16) 512         multiply_1[0][0]                 
__________________________________________________________________________________________________
batch_normalization_3 (BatchNor (None, 112, 112, 16) 64          conv2d_4[0][0]                   
__________________________________________________________________________________________________
conv2d_5 (Conv2D)               (None, 112, 112, 96) 1536        batch_normalization_3[0][0]      
__________________________________________________________________________________________________
batch_normalization_4 (BatchNor (None, 112, 112, 96) 384         conv2d_5[0][0]                   
__________________________________________________________________________________________________
swish_4 (Swish)                 (None, 112, 112, 96) 0           batch_normalization_4[0][0]      
__________________________________________________________________________________________________
depthwise_conv2d_2 (DepthwiseCo (None, 56, 56, 96)   864         swish_4[0][0]                    
__________________________________________________________________________________________________
batch_normalization_5 (BatchNor (None, 56, 56, 96)   384         depthwise_conv2d_2[0][0]         
__________________________________________________________________________________________________
swish_5 (Swish)                 (None, 56, 56, 96)   0           batch_normalization_5[0][0]      
__________________________________________________________________________________________________
lambda_2 (Lambda)               (None, 1, 1, 96)     0           swish_5[0][0]                    
__________________________________________________________________________________________________
conv2d_6 (Conv2D)               (None, 1, 1, 4)      388         lambda_2[0][0]                   
__________________________________________________________________________________________________
swish_6 (Swish)                 (None, 1, 1, 4)      0           conv2d_6[0][0]                   
__________________________________________________________________________________________________
conv2d_7 (Conv2D)               (None, 1, 1, 96)     480         swish_6[0][0]                    
__________________________________________________________________________________________________
activation_2 (Activation)       (None, 1, 1, 96)     0           conv2d_7[0][0]                   
__________________________________________________________________________________________________
multiply_2 (Multiply)           (None, 56, 56, 96)   0           activation_2[0][0]               
                                                                 swish_5[0][0]                    
__________________________________________________________________________________________________
conv2d_8 (Conv2D)               (None, 56, 56, 24)   2304        multiply_2[0][0]                 
__________________________________________________________________________________________________
batch_normalization_6 (BatchNor (None, 56, 56, 24)   96          conv2d_8[0][0]                   
__________________________________________________________________________________________________
conv2d_9 (Conv2D)               (None, 56, 56, 144)  3456        batch_normalization_6[0][0]      
__________________________________________________________________________________________________
batch_normalization_7 (BatchNor (None, 56, 56, 144)  576         conv2d_9[0][0]                   
__________________________________________________________________________________________________
swish_7 (Swish)                 (None, 56, 56, 144)  0           batch_normalization_7[0][0]      
__________________________________________________________________________________________________
depthwise_conv2d_3 (DepthwiseCo (None, 56, 56, 144)  1296        swish_7[0][0]                    
__________________________________________________________________________________________________
batch_normalization_8 (BatchNor (None, 56, 56, 144)  576         depthwise_conv2d_3[0][0]         
__________________________________________________________________________________________________
swish_8 (Swish)                 (None, 56, 56, 144)  0           batch_normalization_8[0][0]      
__________________________________________________________________________________________________
lambda_3 (Lambda)               (None, 1, 1, 144)    0           swish_8[0][0]                    
__________________________________________________________________________________________________
conv2d_10 (Conv2D)              (None, 1, 1, 6)      870         lambda_3[0][0]                   
__________________________________________________________________________________________________
swish_9 (Swish)                 (None, 1, 1, 6)      0           conv2d_10[0][0]                  
__________________________________________________________________________________________________
conv2d_11 (Conv2D)              (None, 1, 1, 144)    1008        swish_9[0][0]                    
__________________________________________________________________________________________________
activation_3 (Activation)       (None, 1, 1, 144)    0           conv2d_11[0][0]                  
__________________________________________________________________________________________________
multiply_3 (Multiply)           (None, 56, 56, 144)  0           activation_3[0][0]               
                                                                 swish_8[0][0]                    
__________________________________________________________________________________________________
conv2d_12 (Conv2D)              (None, 56, 56, 24)   3456        multiply_3[0][0]                 
__________________________________________________________________________________________________
batch_normalization_9 (BatchNor (None, 56, 56, 24)   96          conv2d_12[0][0]                  
__________________________________________________________________________________________________
add_1 (Add)                     (None, 56, 56, 24)   0           batch_normalization_9[0][0]      
                                                                 batch_normalization_6[0][0]      
__________________________________________________________________________________________________
conv2d_13 (Conv2D)              (None, 56, 56, 144)  3456        add_1[0][0]                      
__________________________________________________________________________________________________
batch_normalization_10 (BatchNo (None, 56, 56, 144)  576         conv2d_13[0][0]                  
__________________________________________________________________________________________________
swish_10 (Swish)                (None, 56, 56, 144)  0           batch_normalization_10[0][0]     
__________________________________________________________________________________________________
depthwise_conv2d_4 (DepthwiseCo (None, 28, 28, 144)  3600        swish_10[0][0]                   
__________________________________________________________________________________________________
batch_normalization_11 (BatchNo (None, 28, 28, 144)  576         depthwise_conv2d_4[0][0]         
__________________________________________________________________________________________________
swish_11 (Swish)                (None, 28, 28, 144)  0           batch_normalization_11[0][0]     
__________________________________________________________________________________________________
lambda_4 (Lambda)               (None, 1, 1, 144)    0           swish_11[0][0]                   
__________________________________________________________________________________________________
conv2d_14 (Conv2D)              (None, 1, 1, 6)      870         lambda_4[0][0]                   
__________________________________________________________________________________________________
swish_12 (Swish)                (None, 1, 1, 6)      0           conv2d_14[0][0]                  
__________________________________________________________________________________________________
conv2d_15 (Conv2D)              (None, 1, 1, 144)    1008        swish_12[0][0]                   
__________________________________________________________________________________________________
activation_4 (Activation)       (None, 1, 1, 144)    0           conv2d_15[0][0]                  
__________________________________________________________________________________________________
multiply_4 (Multiply)           (None, 28, 28, 144)  0           activation_4[0][0]               
                                                                 swish_11[0][0]                   
__________________________________________________________________________________________________
conv2d_16 (Conv2D)              (None, 28, 28, 40)   5760        multiply_4[0][0]                 
__________________________________________________________________________________________________
batch_normalization_12 (BatchNo (None, 28, 28, 40)   160         conv2d_16[0][0]                  
__________________________________________________________________________________________________
conv2d_17 (Conv2D)              (None, 28, 28, 240)  9600        batch_normalization_12[0][0]     
__________________________________________________________________________________________________
batch_normalization_13 (BatchNo (None, 28, 28, 240)  960         conv2d_17[0][0]                  
__________________________________________________________________________________________________
swish_13 (Swish)                (None, 28, 28, 240)  0           batch_normalization_13[0][0]     
__________________________________________________________________________________________________
depthwise_conv2d_5 (DepthwiseCo (None, 28, 28, 240)  6000        swish_13[0][0]                   
__________________________________________________________________________________________________
batch_normalization_14 (BatchNo (None, 28, 28, 240)  960         depthwise_conv2d_5[0][0]         
__________________________________________________________________________________________________
swish_14 (Swish)                (None, 28, 28, 240)  0           batch_normalization_14[0][0]     
__________________________________________________________________________________________________
lambda_5 (Lambda)               (None, 1, 1, 240)    0           swish_14[0][0]                   
__________________________________________________________________________________________________
conv2d_18 (Conv2D)              (None, 1, 1, 10)     2410        lambda_5[0][0]                   
__________________________________________________________________________________________________
swish_15 (Swish)                (None, 1, 1, 10)     0           conv2d_18[0][0]                  
__________________________________________________________________________________________________
conv2d_19 (Conv2D)              (None, 1, 1, 240)    2640        swish_15[0][0]                   
__________________________________________________________________________________________________
activation_5 (Activation)       (None, 1, 1, 240)    0           conv2d_19[0][0]                  
__________________________________________________________________________________________________
multiply_5 (Multiply)           (None, 28, 28, 240)  0           activation_5[0][0]               
                                                                 swish_14[0][0]                   
__________________________________________________________________________________________________
conv2d_20 (Conv2D)              (None, 28, 28, 40)   9600        multiply_5[0][0]                 
__________________________________________________________________________________________________
batch_normalization_15 (BatchNo (None, 28, 28, 40)   160         conv2d_20[0][0]                  
__________________________________________________________________________________________________
add_2 (Add)                     (None, 28, 28, 40)   0           batch_normalization_15[0][0]     
                                                                 batch_normalization_12[0][0]     
__________________________________________________________________________________________________
conv2d_21 (Conv2D)              (None, 28, 28, 240)  9600        add_2[0][0]                      
__________________________________________________________________________________________________
batch_normalization_16 (BatchNo (None, 28, 28, 240)  960         conv2d_21[0][0]                  
__________________________________________________________________________________________________
swish_16 (Swish)                (None, 28, 28, 240)  0           batch_normalization_16[0][0]     
__________________________________________________________________________________________________
depthwise_conv2d_6 (DepthwiseCo (None, 14, 14, 240)  2160        swish_16[0][0]                   
__________________________________________________________________________________________________
batch_normalization_17 (BatchNo (None, 14, 14, 240)  960         depthwise_conv2d_6[0][0]         
__________________________________________________________________________________________________
swish_17 (Swish)                (None, 14, 14, 240)  0           batch_normalization_17[0][0]     
__________________________________________________________________________________________________
lambda_6 (Lambda)               (None, 1, 1, 240)    0           swish_17[0][0]                   
__________________________________________________________________________________________________
conv2d_22 (Conv2D)              (None, 1, 1, 10)     2410        lambda_6[0][0]                   
__________________________________________________________________________________________________
swish_18 (Swish)                (None, 1, 1, 10)     0           conv2d_22[0][0]                  
__________________________________________________________________________________________________
conv2d_23 (Conv2D)              (None, 1, 1, 240)    2640        swish_18[0][0]                   
__________________________________________________________________________________________________
activation_6 (Activation)       (None, 1, 1, 240)    0           conv2d_23[0][0]                  
__________________________________________________________________________________________________
multiply_6 (Multiply)           (None, 14, 14, 240)  0           activation_6[0][0]               
                                                                 swish_17[0][0]                   
__________________________________________________________________________________________________
conv2d_24 (Conv2D)              (None, 14, 14, 80)   19200       multiply_6[0][0]                 
__________________________________________________________________________________________________
batch_normalization_18 (BatchNo (None, 14, 14, 80)   320         conv2d_24[0][0]                  
__________________________________________________________________________________________________
conv2d_25 (Conv2D)              (None, 14, 14, 480)  38400       batch_normalization_18[0][0]     
__________________________________________________________________________________________________
batch_normalization_19 (BatchNo (None, 14, 14, 480)  1920        conv2d_25[0][0]                  
__________________________________________________________________________________________________
swish_19 (Swish)                (None, 14, 14, 480)  0           batch_normalization_19[0][0]     
__________________________________________________________________________________________________
depthwise_conv2d_7 (DepthwiseCo (None, 14, 14, 480)  4320        swish_19[0][0]                   
__________________________________________________________________________________________________
batch_normalization_20 (BatchNo (None, 14, 14, 480)  1920        depthwise_conv2d_7[0][0]         
__________________________________________________________________________________________________
swish_20 (Swish)                (None, 14, 14, 480)  0           batch_normalization_20[0][0]     
__________________________________________________________________________________________________
lambda_7 (Lambda)               (None, 1, 1, 480)    0           swish_20[0][0]                   
__________________________________________________________________________________________________
conv2d_26 (Conv2D)              (None, 1, 1, 20)     9620        lambda_7[0][0]                   
__________________________________________________________________________________________________
swish_21 (Swish)                (None, 1, 1, 20)     0           conv2d_26[0][0]                  
__________________________________________________________________________________________________
conv2d_27 (Conv2D)              (None, 1, 1, 480)    10080       swish_21[0][0]                   
__________________________________________________________________________________________________
activation_7 (Activation)       (None, 1, 1, 480)    0           conv2d_27[0][0]                  
__________________________________________________________________________________________________
multiply_7 (Multiply)           (None, 14, 14, 480)  0           activation_7[0][0]               
                                                                 swish_20[0][0]                   
__________________________________________________________________________________________________
conv2d_28 (Conv2D)              (None, 14, 14, 80)   38400       multiply_7[0][0]                 
__________________________________________________________________________________________________
batch_normalization_21 (BatchNo (None, 14, 14, 80)   320         conv2d_28[0][0]                  
__________________________________________________________________________________________________
add_3 (Add)                     (None, 14, 14, 80)   0           batch_normalization_21[0][0]     
                                                                 batch_normalization_18[0][0]     
__________________________________________________________________________________________________
conv2d_29 (Conv2D)              (None, 14, 14, 480)  38400       add_3[0][0]                      
__________________________________________________________________________________________________
batch_normalization_22 (BatchNo (None, 14, 14, 480)  1920        conv2d_29[0][0]                  
__________________________________________________________________________________________________
swish_22 (Swish)                (None, 14, 14, 480)  0           batch_normalization_22[0][0]     
__________________________________________________________________________________________________
depthwise_conv2d_8 (DepthwiseCo (None, 14, 14, 480)  4320        swish_22[0][0]                   
__________________________________________________________________________________________________
batch_normalization_23 (BatchNo (None, 14, 14, 480)  1920        depthwise_conv2d_8[0][0]         
__________________________________________________________________________________________________
swish_23 (Swish)                (None, 14, 14, 480)  0           batch_normalization_23[0][0]     
__________________________________________________________________________________________________
lambda_8 (Lambda)               (None, 1, 1, 480)    0           swish_23[0][0]                   
__________________________________________________________________________________________________
conv2d_30 (Conv2D)              (None, 1, 1, 20)     9620        lambda_8[0][0]                   
__________________________________________________________________________________________________
swish_24 (Swish)                (None, 1, 1, 20)     0           conv2d_30[0][0]                  
__________________________________________________________________________________________________
conv2d_31 (Conv2D)              (None, 1, 1, 480)    10080       swish_24[0][0]                   
__________________________________________________________________________________________________
activation_8 (Activation)       (None, 1, 1, 480)    0           conv2d_31[0][0]                  
__________________________________________________________________________________________________
multiply_8 (Multiply)           (None, 14, 14, 480)  0           activation_8[0][0]               
                                                                 swish_23[0][0]                   
__________________________________________________________________________________________________
conv2d_32 (Conv2D)              (None, 14, 14, 80)   38400       multiply_8[0][0]                 
__________________________________________________________________________________________________
batch_normalization_24 (BatchNo (None, 14, 14, 80)   320         conv2d_32[0][0]                  
__________________________________________________________________________________________________
add_4 (Add)                     (None, 14, 14, 80)   0           batch_normalization_24[0][0]     
                                                                 add_3[0][0]                      
__________________________________________________________________________________________________
conv2d_33 (Conv2D)              (None, 14, 14, 480)  38400       add_4[0][0]                      
__________________________________________________________________________________________________
batch_normalization_25 (BatchNo (None, 14, 14, 480)  1920        conv2d_33[0][0]                  
__________________________________________________________________________________________________
swish_25 (Swish)                (None, 14, 14, 480)  0           batch_normalization_25[0][0]     
__________________________________________________________________________________________________
depthwise_conv2d_9 (DepthwiseCo (None, 14, 14, 480)  12000       swish_25[0][0]                   
__________________________________________________________________________________________________
batch_normalization_26 (BatchNo (None, 14, 14, 480)  1920        depthwise_conv2d_9[0][0]         
__________________________________________________________________________________________________
swish_26 (Swish)                (None, 14, 14, 480)  0           batch_normalization_26[0][0]     
__________________________________________________________________________________________________
lambda_9 (Lambda)               (None, 1, 1, 480)    0           swish_26[0][0]                   
__________________________________________________________________________________________________
conv2d_34 (Conv2D)              (None, 1, 1, 20)     9620        lambda_9[0][0]                   
__________________________________________________________________________________________________
swish_27 (Swish)                (None, 1, 1, 20)     0           conv2d_34[0][0]                  
__________________________________________________________________________________________________
conv2d_35 (Conv2D)              (None, 1, 1, 480)    10080       swish_27[0][0]                   
__________________________________________________________________________________________________
activation_9 (Activation)       (None, 1, 1, 480)    0           conv2d_35[0][0]                  
__________________________________________________________________________________________________
multiply_9 (Multiply)           (None, 14, 14, 480)  0           activation_9[0][0]               
                                                                 swish_26[0][0]                   
__________________________________________________________________________________________________
conv2d_36 (Conv2D)              (None, 14, 14, 112)  53760       multiply_9[0][0]                 
__________________________________________________________________________________________________
batch_normalization_27 (BatchNo (None, 14, 14, 112)  448         conv2d_36[0][0]                  
__________________________________________________________________________________________________
conv2d_37 (Conv2D)              (None, 14, 14, 672)  75264       batch_normalization_27[0][0]     
__________________________________________________________________________________________________
batch_normalization_28 (BatchNo (None, 14, 14, 672)  2688        conv2d_37[0][0]                  
__________________________________________________________________________________________________
swish_28 (Swish)                (None, 14, 14, 672)  0           batch_normalization_28[0][0]     
__________________________________________________________________________________________________
depthwise_conv2d_10 (DepthwiseC (None, 14, 14, 672)  16800       swish_28[0][0]                   
__________________________________________________________________________________________________
batch_normalization_29 (BatchNo (None, 14, 14, 672)  2688        depthwise_conv2d_10[0][0]        
__________________________________________________________________________________________________
swish_29 (Swish)                (None, 14, 14, 672)  0           batch_normalization_29[0][0]     
__________________________________________________________________________________________________
lambda_10 (Lambda)              (None, 1, 1, 672)    0           swish_29[0][0]                   
__________________________________________________________________________________________________
conv2d_38 (Conv2D)              (None, 1, 1, 28)     18844       lambda_10[0][0]                  
__________________________________________________________________________________________________
swish_30 (Swish)                (None, 1, 1, 28)     0           conv2d_38[0][0]                  
__________________________________________________________________________________________________
conv2d_39 (Conv2D)              (None, 1, 1, 672)    19488       swish_30[0][0]                   
__________________________________________________________________________________________________
activation_10 (Activation)      (None, 1, 1, 672)    0           conv2d_39[0][0]                  
__________________________________________________________________________________________________
multiply_10 (Multiply)          (None, 14, 14, 672)  0           activation_10[0][0]              
                                                                 swish_29[0][0]                   
__________________________________________________________________________________________________
conv2d_40 (Conv2D)              (None, 14, 14, 112)  75264       multiply_10[0][0]                
__________________________________________________________________________________________________
batch_normalization_30 (BatchNo (None, 14, 14, 112)  448         conv2d_40[0][0]                  
__________________________________________________________________________________________________
add_5 (Add)                     (None, 14, 14, 112)  0           batch_normalization_30[0][0]     
                                                                 batch_normalization_27[0][0]     
__________________________________________________________________________________________________
conv2d_41 (Conv2D)              (None, 14, 14, 672)  75264       add_5[0][0]                      
__________________________________________________________________________________________________
batch_normalization_31 (BatchNo (None, 14, 14, 672)  2688        conv2d_41[0][0]                  
__________________________________________________________________________________________________
swish_31 (Swish)                (None, 14, 14, 672)  0           batch_normalization_31[0][0]     
__________________________________________________________________________________________________
depthwise_conv2d_11 (DepthwiseC (None, 14, 14, 672)  16800       swish_31[0][0]                   
__________________________________________________________________________________________________
batch_normalization_32 (BatchNo (None, 14, 14, 672)  2688        depthwise_conv2d_11[0][0]        
__________________________________________________________________________________________________
swish_32 (Swish)                (None, 14, 14, 672)  0           batch_normalization_32[0][0]     
__________________________________________________________________________________________________
lambda_11 (Lambda)              (None, 1, 1, 672)    0           swish_32[0][0]                   
__________________________________________________________________________________________________
conv2d_42 (Conv2D)              (None, 1, 1, 28)     18844       lambda_11[0][0]                  
__________________________________________________________________________________________________
swish_33 (Swish)                (None, 1, 1, 28)     0           conv2d_42[0][0]                  
__________________________________________________________________________________________________
conv2d_43 (Conv2D)              (None, 1, 1, 672)    19488       swish_33[0][0]                   
__________________________________________________________________________________________________
activation_11 (Activation)      (None, 1, 1, 672)    0           conv2d_43[0][0]                  
__________________________________________________________________________________________________
multiply_11 (Multiply)          (None, 14, 14, 672)  0           activation_11[0][0]              
                                                                 swish_32[0][0]                   
__________________________________________________________________________________________________
conv2d_44 (Conv2D)              (None, 14, 14, 112)  75264       multiply_11[0][0]                
__________________________________________________________________________________________________
batch_normalization_33 (BatchNo (None, 14, 14, 112)  448         conv2d_44[0][0]                  
__________________________________________________________________________________________________
add_6 (Add)                     (None, 14, 14, 112)  0           batch_normalization_33[0][0]     
                                                                 add_5[0][0]                      
__________________________________________________________________________________________________
conv2d_45 (Conv2D)              (None, 14, 14, 672)  75264       add_6[0][0]                      
__________________________________________________________________________________________________
batch_normalization_34 (BatchNo (None, 14, 14, 672)  2688        conv2d_45[0][0]                  
__________________________________________________________________________________________________
swish_34 (Swish)                (None, 14, 14, 672)  0           batch_normalization_34[0][0]     
__________________________________________________________________________________________________
depthwise_conv2d_12 (DepthwiseC (None, 7, 7, 672)    16800       swish_34[0][0]                   
__________________________________________________________________________________________________
batch_normalization_35 (BatchNo (None, 7, 7, 672)    2688        depthwise_conv2d_12[0][0]        
__________________________________________________________________________________________________
swish_35 (Swish)                (None, 7, 7, 672)    0           batch_normalization_35[0][0]     
__________________________________________________________________________________________________
lambda_12 (Lambda)              (None, 1, 1, 672)    0           swish_35[0][0]                   
__________________________________________________________________________________________________
conv2d_46 (Conv2D)              (None, 1, 1, 28)     18844       lambda_12[0][0]                  
__________________________________________________________________________________________________
swish_36 (Swish)                (None, 1, 1, 28)     0           conv2d_46[0][0]                  
__________________________________________________________________________________________________
conv2d_47 (Conv2D)              (None, 1, 1, 672)    19488       swish_36[0][0]                   
__________________________________________________________________________________________________
activation_12 (Activation)      (None, 1, 1, 672)    0           conv2d_47[0][0]                  
__________________________________________________________________________________________________
multiply_12 (Multiply)          (None, 7, 7, 672)    0           activation_12[0][0]              
                                                                 swish_35[0][0]                   
__________________________________________________________________________________________________
conv2d_48 (Conv2D)              (None, 7, 7, 192)    129024      multiply_12[0][0]                
__________________________________________________________________________________________________
batch_normalization_36 (BatchNo (None, 7, 7, 192)    768         conv2d_48[0][0]                  
__________________________________________________________________________________________________
conv2d_49 (Conv2D)              (None, 7, 7, 1152)   221184      batch_normalization_36[0][0]     
__________________________________________________________________________________________________
batch_normalization_37 (BatchNo (None, 7, 7, 1152)   4608        conv2d_49[0][0]                  
__________________________________________________________________________________________________
swish_37 (Swish)                (None, 7, 7, 1152)   0           batch_normalization_37[0][0]     
__________________________________________________________________________________________________
depthwise_conv2d_13 (DepthwiseC (None, 7, 7, 1152)   28800       swish_37[0][0]                   
__________________________________________________________________________________________________
batch_normalization_38 (BatchNo (None, 7, 7, 1152)   4608        depthwise_conv2d_13[0][0]        
__________________________________________________________________________________________________
swish_38 (Swish)                (None, 7, 7, 1152)   0           batch_normalization_38[0][0]     
__________________________________________________________________________________________________
lambda_13 (Lambda)              (None, 1, 1, 1152)   0           swish_38[0][0]                   
__________________________________________________________________________________________________
conv2d_50 (Conv2D)              (None, 1, 1, 48)     55344       lambda_13[0][0]                  
__________________________________________________________________________________________________
swish_39 (Swish)                (None, 1, 1, 48)     0           conv2d_50[0][0]                  
__________________________________________________________________________________________________
conv2d_51 (Conv2D)              (None, 1, 1, 1152)   56448       swish_39[0][0]                   
__________________________________________________________________________________________________
activation_13 (Activation)      (None, 1, 1, 1152)   0           conv2d_51[0][0]                  
__________________________________________________________________________________________________
multiply_13 (Multiply)          (None, 7, 7, 1152)   0           activation_13[0][0]              
                                                                 swish_38[0][0]                   
__________________________________________________________________________________________________
conv2d_52 (Conv2D)              (None, 7, 7, 192)    221184      multiply_13[0][0]                
__________________________________________________________________________________________________
batch_normalization_39 (BatchNo (None, 7, 7, 192)    768         conv2d_52[0][0]                  
__________________________________________________________________________________________________
add_7 (Add)                     (None, 7, 7, 192)    0           batch_normalization_39[0][0]     
                                                                 batch_normalization_36[0][0]     
__________________________________________________________________________________________________
conv2d_53 (Conv2D)              (None, 7, 7, 1152)   221184      add_7[0][0]                      
__________________________________________________________________________________________________
batch_normalization_40 (BatchNo (None, 7, 7, 1152)   4608        conv2d_53[0][0]                  
__________________________________________________________________________________________________
swish_40 (Swish)                (None, 7, 7, 1152)   0           batch_normalization_40[0][0]     
__________________________________________________________________________________________________
depthwise_conv2d_14 (DepthwiseC (None, 7, 7, 1152)   28800       swish_40[0][0]                   
__________________________________________________________________________________________________
batch_normalization_41 (BatchNo (None, 7, 7, 1152)   4608        depthwise_conv2d_14[0][0]        
__________________________________________________________________________________________________
swish_41 (Swish)                (None, 7, 7, 1152)   0           batch_normalization_41[0][0]     
__________________________________________________________________________________________________
lambda_14 (Lambda)              (None, 1, 1, 1152)   0           swish_41[0][0]                   
__________________________________________________________________________________________________
conv2d_54 (Conv2D)              (None, 1, 1, 48)     55344       lambda_14[0][0]                  
__________________________________________________________________________________________________
swish_42 (Swish)                (None, 1, 1, 48)     0           conv2d_54[0][0]                  
__________________________________________________________________________________________________
conv2d_55 (Conv2D)              (None, 1, 1, 1152)   56448       swish_42[0][0]                   
__________________________________________________________________________________________________
activation_14 (Activation)      (None, 1, 1, 1152)   0           conv2d_55[0][0]                  
__________________________________________________________________________________________________
multiply_14 (Multiply)          (None, 7, 7, 1152)   0           activation_14[0][0]              
                                                                 swish_41[0][0]                   
__________________________________________________________________________________________________
conv2d_56 (Conv2D)              (None, 7, 7, 192)    221184      multiply_14[0][0]                
__________________________________________________________________________________________________
batch_normalization_42 (BatchNo (None, 7, 7, 192)    768         conv2d_56[0][0]                  
__________________________________________________________________________________________________
add_8 (Add)                     (None, 7, 7, 192)    0           batch_normalization_42[0][0]     
                                                                 add_7[0][0]                      
__________________________________________________________________________________________________
conv2d_57 (Conv2D)              (None, 7, 7, 1152)   221184      add_8[0][0]                      
__________________________________________________________________________________________________
batch_normalization_43 (BatchNo (None, 7, 7, 1152)   4608        conv2d_57[0][0]                  
__________________________________________________________________________________________________
swish_43 (Swish)                (None, 7, 7, 1152)   0           batch_normalization_43[0][0]     
__________________________________________________________________________________________________
depthwise_conv2d_15 (DepthwiseC (None, 7, 7, 1152)   28800       swish_43[0][0]                   
__________________________________________________________________________________________________
batch_normalization_44 (BatchNo (None, 7, 7, 1152)   4608        depthwise_conv2d_15[0][0]        
__________________________________________________________________________________________________
swish_44 (Swish)                (None, 7, 7, 1152)   0           batch_normalization_44[0][0]     
__________________________________________________________________________________________________
lambda_15 (Lambda)              (None, 1, 1, 1152)   0           swish_44[0][0]                   
__________________________________________________________________________________________________
conv2d_58 (Conv2D)              (None, 1, 1, 48)     55344       lambda_15[0][0]                  
__________________________________________________________________________________________________
swish_45 (Swish)                (None, 1, 1, 48)     0           conv2d_58[0][0]                  
__________________________________________________________________________________________________
conv2d_59 (Conv2D)              (None, 1, 1, 1152)   56448       swish_45[0][0]                   
__________________________________________________________________________________________________
activation_15 (Activation)      (None, 1, 1, 1152)   0           conv2d_59[0][0]                  
__________________________________________________________________________________________________
multiply_15 (Multiply)          (None, 7, 7, 1152)   0           activation_15[0][0]              
                                                                 swish_44[0][0]                   
__________________________________________________________________________________________________
conv2d_60 (Conv2D)              (None, 7, 7, 192)    221184      multiply_15[0][0]                
__________________________________________________________________________________________________
batch_normalization_45 (BatchNo (None, 7, 7, 192)    768         conv2d_60[0][0]                  
__________________________________________________________________________________________________
add_9 (Add)                     (None, 7, 7, 192)    0           batch_normalization_45[0][0]     
                                                                 add_8[0][0]                      
__________________________________________________________________________________________________
conv2d_61 (Conv2D)              (None, 7, 7, 1152)   221184      add_9[0][0]                      
__________________________________________________________________________________________________
batch_normalization_46 (BatchNo (None, 7, 7, 1152)   4608        conv2d_61[0][0]                  
__________________________________________________________________________________________________
swish_46 (Swish)                (None, 7, 7, 1152)   0           batch_normalization_46[0][0]     
__________________________________________________________________________________________________
depthwise_conv2d_16 (DepthwiseC (None, 7, 7, 1152)   10368       swish_46[0][0]                   
__________________________________________________________________________________________________
batch_normalization_47 (BatchNo (None, 7, 7, 1152)   4608        depthwise_conv2d_16[0][0]        
__________________________________________________________________________________________________
swish_47 (Swish)                (None, 7, 7, 1152)   0           batch_normalization_47[0][0]     
__________________________________________________________________________________________________
lambda_16 (Lambda)              (None, 1, 1, 1152)   0           swish_47[0][0]                   
__________________________________________________________________________________________________
conv2d_62 (Conv2D)              (None, 1, 1, 48)     55344       lambda_16[0][0]                  
__________________________________________________________________________________________________
swish_48 (Swish)                (None, 1, 1, 48)     0           conv2d_62[0][0]                  
__________________________________________________________________________________________________
conv2d_63 (Conv2D)              (None, 1, 1, 1152)   56448       swish_48[0][0]                   
__________________________________________________________________________________________________
activation_16 (Activation)      (None, 1, 1, 1152)   0           conv2d_63[0][0]                  
__________________________________________________________________________________________________
multiply_16 (Multiply)          (None, 7, 7, 1152)   0           activation_16[0][0]              
                                                                 swish_47[0][0]                   
__________________________________________________________________________________________________
conv2d_64 (Conv2D)              (None, 7, 7, 320)    368640      multiply_16[0][0]                
__________________________________________________________________________________________________
batch_normalization_48 (BatchNo (None, 7, 7, 320)    1280        conv2d_64[0][0]                  
__________________________________________________________________________________________________
conv2d_65 (Conv2D)              (None, 7, 7, 1280)   409600      batch_normalization_48[0][0]     
__________________________________________________________________________________________________
batch_normalization_49 (BatchNo (None, 7, 7, 1280)   5120        conv2d_65[0][0]                  
__________________________________________________________________________________________________
swish_49 (Swish)                (None, 7, 7, 1280)   0           batch_normalization_49[0][0]     
==================================================================================================
Total params: 4,049,564
Trainable params: 4,007,548
Non-trainable params: 42,016
__________________________________________________________________________________________________
Model: "sequential_1"
_________________________________________________________________
Layer (type)                 Output Shape              Param #   
=================================================================
model_2 (Model)              (None, 7, 7, 1280)        4049564   
_________________________________________________________________
gap (GlobalAveragePooling2D) (None, 1280)              0         
_________________________________________________________________
dropout_1 (Dropout)          (None, 1280)              0         
_________________________________________________________________
dense_1 (Dense)              (None, 19)                24339     
=================================================================
Total params: 4,073,903
Trainable params: 4,031,887
Non-trainable params: 42,016
_________________________________________________________________
Epoch 1/25

  1/120 [..............................] - ETA: 38:02 - loss: 2.8582 - accuracy: 0.0625
  2/120 [..............................] - ETA: 19:56 - loss: 2.9442 - accuracy: 0.0938
…
